Action-Detection-for-Sign-Language-Detection-master/model.tflite (tflite, 627200 bytes, 15 tensors)

sequential/dense_1/BiasAdd/ReadVariableOp f4 [32]
00000000: aaab 0abd bf72 c5bc 8fe9 68bc efa5 50bc
00000010: e41b 7fbc 05e8 a8bb d61a 95bc 550f f53c
00000020: 777c efbc 6e75 3bbc d16a 2cbc 4324 eabb
00000030: 0888 9ebc 7810 363d 18a0 dcbc b36b 51bc
00000040: 70f9 61bc 3296 3d3c 6c5e 9ebc 0c51 41bc
00000050: a65c 4b3c f23c 9abc 25aa 9dbc 5c1a aabc
00000060: d4b3 3f3d ce4d 27bb 32d6 3bbc 83e3 243c
00000070: 4948 e2bb 5822 26bc ae16 f6bb 9237 43bc
-0.033855118 -0.024102567 -0.014215841 -0.012734874 -0.0155706145 -0.005154612 -0.018201273 0.029914537
-0.029234154 -0.011441572 -0.010523514 -0.007145436 -0.019351974 0.0444493 -0.026931807 -0.012782025
-0.013792381 0.011571454 -0.019332133 -0.011799108 0.012412226 -0.01882789 -0.01924617 -0.020764522
0.046802357 -0.0025528553 -0.011464642 0.010064009 -0.0069055897 -0.010140024 -0.007510028 -0.011915104

sequential/dense_2/BiasAdd/ReadVariableOp f4 [3]
00000000: 6151 acbc 3434 7dbc 61eb f43c
-0.021034898 -0.015454341 0.029897394

sequential/dense/BiasAdd/ReadVariableOp f4 [64]
00000000: 2e7e 4bbc 2c98 aa3c bb7f 22bc bdf3 43bb
00000010: f418 e53b 07ff 66bd be2b 89ba 7fb3 88bc
00000020: 86cf e13c 4951 8abc 2a31 31bc c204 e53b
00000030: b2a6 a7bb 61f8 ecbb 3011 1a3d 1d08 b83c
00000040: 191e 573c 5282 99bc b521 7fbc 0fb0 8a3d
00000050: 85c7 89b7 5d52 7dbc d9dd 2bbd 8a7d 783c
00000060: 5ec7 663d 5ebe 11bb 4b7f aebc 08d0 833d
00000070: 5497 3cbc 193b 4ebc cd96 60bc 0b18 48bc
00000080: 7ba3 0a3c 3093 b83a 8e09 47ba 1b94 98bc
00000090: abdb d0bb f926 1e3d ddd7 33bd aead b4bc
000000a0: 95fa ecbc 8bf2 fdbc 3215 4b3b 95d6 d7bb
000000b0: 2e40 21bc f2bd 02bd 61b5 d0bc 5fbf 78bc
000000c0: 0cee 87bb 5b0f 0ebc dc8f b0bc 8870 07bd
000000d0: 18c3 e53c 05ec 95bc e173 893c 4f3b a0bc
000000e0: 5d52 b3bc 5c02 5fbc 7d87 313d ab33 673d
000000f0: 8ce0 73bc fcc9 78bc b12b 9bbc fb0d 74bc
-0.01242022 0.020824514 -0.009918149 -0.0029899918 0.0069915 -0.056395557 -0.0010465307 -0.016687153
0.027564775 -0.016884463 -0.010814944 0.0069890926 -0.005116307 -0.0072317575 0.037614048 0.022464806
0.013129734 -0.0187389 -0.015572001 0.06771862 -1.6424581e-05 -0.0154615315 -0.041959617 0.01516665
0.056342475 -0.0022238712 -0.021300932 0.06436163 -0.011510689 -0.012587332 -0.013707829 -0.012212764
0.008461828 0.0014081951 -0.00075926713 -0.01862531 -0.0063738427 0.038611386 -0.043907035 -0.022055473
-0.02892808 -0.030999443 0.0030987975 -0.0065868595 -0.009841962 -0.031919427 -0.025477113 -0.015182345
-0.0041482504 -0.008670653 -0.021552972 -0.033066303 0.02804713 -0.01830102 0.016778888 -0.01955953
-0.02188986 -0.013611402 0.043342102 0.05644576 -0.014885079 -0.015184876 -0.018941732 -0.014895911

sequential/dense_2/MatMul f4 [3, 32]
00000000: ffd9 ccbd 3d90 56be 1c3a aa3b 5221 8b3d
00000010: 563e 9838 fe65 413b 0b63 81be 2d6b 4ebe
00000020: ffe5 f83d 5618 c5be f0aa b4be f47f c8bd
00000030: 3351 a5be e8d7 0b3e 4533 b33d 0590 7cbe
00000040: cad0 bfbe aed1 0ebd 8a0a 8abe 9703 0abe
00000050: f4a0 85be c2b7 973e a593 9f3d 6cfe bdbe
00000060: 04d0 9bbe d855 953e d67a 653d f3bb 943d
00000070: 6508 24be 6ad6 bdbe dddf 60be 1f82 ad3d
00000080: 92f9 e1bb 0381 033e 6fba 353e 0115 dfbe
00000090: 53aa be3d 4411 c8be faf2 6d3e 1565 43be
000000a0: 0706 793e 8df9 db3c e0e7 28be ad5b 1d3e
000000b0: be97 cebe 0e62 e3be c3cf f63d 76bd 1b3c
000000c0: 2cf7 e9bd 6db0 9bbe 201f 713e c8c2 b93d
000000d0: ff72 a4be 545b 7cbe 15eb aa3e cd0b 523e
000000e0: 4195 c13d 80ec 30be c1b3 e1bc bdf4 83be
000000f0: 9630 933e b50c 393b 4678 d43e 0f98 b33e
00000100: 65a9 6fbe ebf2 3b3e be07 713d 7be2 7bbe
00000110: f8c1 c33c b019 8a3e 3d94 a7be 8e92 d23e
00000120: ee6d 2dbe 0f99 aabe 1a30 6bbe 1b55 75be
00000130: bf73 8c3e 2e0c b23e 9ede 833d 63f0 79be
00000140: 5f9c a1be 5c73 febd 0c59 63be cb06 aebe
00000150: e631 be3e 94bf c5be b3c8 79be 1381 3abc
00000160: d2c7 8f3e e71d 023d f4c4 39be 8a89 6cbe
00000170: 082c 303e 7d89 25be 1fba 923e 1258 6b3d
-0.10002517 -0.2095346 0.0051949155 0.06793465 7.259536e-05 0.0029510255 -0.25270876 -0.20158072
0.12153243 -0.3849513 -0.35286665 -0.0979003 -0.32288513 0.1365658 0.08750013 -0.24664314
-0.3746398 -0.034867935 -0.26961166 -0.13477932 -0.2609936 0.29632384 0.07791833 -0.3710817
-0.3043214 0.29167056 0.05602535 0.07262411 -0.16018827 -0.37077647 -0.21960397 0.08472084
-0.006896206 0.12842183 0.177469 -0.43570712 0.093098305 -0.39075673 0.2323722 -0.19081528
0.24318705 0.026852394 -0.16494703 0.15367003 -0.40350145 -0.44410747 0.12051346 0.00950562
-0.114240974 -0.3040804 0.2354703 0.09070355 -0.32118985 -0.24644214 0.33382478 0.20512314
0.09452296 -0.17277718 -0.027551534 -0.25772658 0.28748006 0.0028236334 0.4149801 0.3507695
-0.23404463 0.18354385 0.058845274 -0.24598114 0.023896202 0.26972723 -0.32730284 0.41127437
-0.16936466 -0.333199 -0.22967568 -0.23958246 0.27432057 0.34774917 0.06438945 -0.24408107
-0.31564614 -0.12424347 -0.22201937 -0.33989558 0.37147444 -0.38622725 -0.24392967 -0.011383313
0.28082138 0.0317668 -0.18141538 -0.23099342 0.17204297 -0.16165729 0.28657624 0.057457037

sequential/dense_1/MatMul i1 [32, 64] scale=0.0021564583 zero_point=0
00000000: 2810 ebaa 0e0f e0e2 9ad7 5b05 9ab3 9e35
00000010: f5b3 024f c503 54b4 e49b ea50 0dc1 1e42
00000020: 1448 93d9 083b 3b2a 2166 331b c1e0 e702
00000030: fb22 bf59 5c25 3605 3e45 4d4f aabe e05a
00000040: aaca a0c1 a234 c10a dcaa 1239 4940 1386
00000050: 2b01 3f39 a824 55bd f145 97e6 1e07 f0ca
00000060: 1699 64c2 2baa 52df 9492 a425 958f 6016
00000070: fc46 c954 f69c 98f3 47d0 2ec0 aeab ce55
00000080: 6b63 e7a3 a638 23d5 9a1c b8b3 f1a2 0c46
00000090: e918 364e 92f0 07eb 2bab b554 9118 2838
000000a0: b04b 5038 b2cf 072a 3046 32e2 dd5a 0bec
000000b0: 01c0 cb39 7557 4b73 d91a 208e 2837 b5d9
000000c0: d928 2a26 7534 74f7 f93b 595b e012 d67c
000000d0: 68c8 dc67 27f0 5628 989a 1ea2 28fa 07f9
000000e0: dba2 0593 c015 4f40 34dc 6eba 29c1 520e
000000f0: 0418 2e2a 2217 7ed0 ece3 4aaf 32d0 11d2
0.08625834 0.034503333 -0.045285624 -0.18545541 0.030190416 0.032346874 -0.06900667 -0.06469375
-0.21995875 -0.08841479 0.19623771 0.010782292 -0.21995875 -0.16604729 -0.21133292 0.114292294
-0.023721041 -0.16604729 0.0043129167 0.17036021 -0.12723105 0.006469375 0.1811425 -0.16389084
-0.06038083 -0.21780229 -0.047442082 0.17251667 0.028033959 -0.13585688 0.06469375 0.14232625
0.04312917 0.155265 -0.23505396 -0.08410188 0.017251667 0.12723105 0.12723105 0.09057125
0.071163125 0.21995875 0.109979376 0.058224376 -0.13585688 -0.06900667 -0.05391146 0.0043129167
-0.010782292 0.073319584 -0.14016978 0.1919248 0.19839416 0.07978896 0.11644875 0.010782292
0.13370042 0.14879562 0.16604729 0.17036021 -0.18545541 -0.14232625 -0.06900667 0.19408125
-0.18545541 -0.11644875 -0.20702 -0.13585688 -0.20270708 0.112135835 -0.13585688 0.021564584
-0.0776325 -0.18545541 0.03881625 0.12291812 0.15742145 0.13801333 0.04097271 -0.26308793
0.092727706 0.0021564583 0.13585688 0.12291812 -0.18976833 0.0776325 0.18329896 -0.1444827
-0.032346874 0.14879562 -0.22642812 -0.056067917 0.06469375 0.015095208 -0.034503333 -0.11644875
0.047442082 -0.2221152 0.21564583 -0.13370042 0.092727706 -0.18545541 0.17682958 -0.071163125
-0.2328975 -0.23721042 -0.19839416 0.07978896 -0.23074104 -0.24367979 0.20702 0.047442082
-0.008625833 0.15095209 -0.11860521 0.1811425 -0.021564584 -0.21564583 -0.22427167 -0.028033959
0.15310854 -0.10351 0.09919708 -0.13801333 -0.17682958 -0.18329896 -0.10782292 0.18329896
0.23074104 0.21348937 -0.05391146 -0.20055063 -0.19408125 0.12076166 0.07547604 -0.092727706
-0.21995875 0.06038083 -0.155265 -0.16604729 -0.032346874 -0.20270708 0.0258775 0.15095209
-0.04959854 0.051755 0.11644875 0.16820376 -0.23721042 -0.034503333 0.015095208 -0.045285624
0.092727706 -0.18329896 -0.16173437 0.1811425 -0.23936687 0.051755 0.08625834 0.12076166
-0.17251667 0.16173437 0.17251667 0.12076166 -0.16820376 -0.10566646 0.015095208 0.09057125
0.10351 0.15095209 0.10782292 -0.06469375 -0.07547604 0.19408125 0.023721041 -0.04312917
0.0021564583 -0.13801333 -0.114292294 0.12291812 0.25230563 0.18761188 0.16173437 0.24799271
-0.08410188 0.056067917 0.06900667 -0.24583624 0.08625834 0.11860521 -0.16173437 -0.08410188
-0.08410188 0.08625834 0.09057125 0.08194542 0.25230563 0.112135835 0.25014916 -0.019408125
-0.015095208 0.12723105 0.1919248 0.19623771 -0.06900667 0.03881625 -0.09057125 0.26740083
0.22427167 -0.12076166 -0.0776325 0.2221152 0.08410188 -0.034503333 0.18545541 0.08625834
-0.22427167 -0.21995875 0.06469375 -0.20270708 0.08625834 -0.01293875 0.015095208 -0.015095208
-0.07978896 -0.20270708 0.010782292 -0.23505396 -0.13801333 0.045285624 0.17036021 0.13801333
0.112135835 -0.0776325 0.23721042 -0.15095209 0.08841479 -0.13585688 0.17682958 0.030190416
0.008625833 0.051755 0.09919708 0.09057125 0.073319584 0.04959854 0.27171376 -0.10351
-0.04312917 -0.06253729 0.15957792 -0.17467313 0.10782292 -0.10351 0.036659792 -0.09919708

sequential/dense/MatMul i1 [64, 64] scale=0.002211528 zero_point=0
00000000: 4ea3 2d4d d630 540f 0954 5ff3 a1a7 da02
00000010: 3759 442e b752 d659 1510 f1ba c592 b72f
00000020: 4fa2 a8d4 0fc8 32de 50b1 b2c5 e130 cdd2
00000030: 2f5c 59f5 51a0 4ef9 f00f dcca e831 b065
00000040: d9da c4b4 f940 0bcf 2529 ef15 16ba 55fd
00000050: 1341 d806 2c20 22f4 01bc 49a6 dd24 ce02
00000060: 28e5 1ab0 0152 1163 f217 5a1f 104e b623
00000070: d1a5 270b 11a7 c40c 37cd 1d0e 3d3d 151c
00000080: 1fb7 c4d1 ae2b 27f3 c2bd a3ea b5b7 3ab0
00000090: d109 3d60 ffc3 25e3 ef27 f035 d2a2 3f33
000000a0: ace7 1445 c958 cce0 1231 bb30 bdb5 cefc
000000b0: ce5b 0032 55d8 dfb9 df4d 179b 56fd f2ed
000000c0: 9ffb a30d e2f4 dab6 c30f ac39 a81c 0139
000000d0: 3d0a e04d 525b 4da9 c2c4 4416 aec0 3128
000000e0: 0f5d ad41 2b00 380b 5fd4 e0dd 133b 4451
000000f0: ba2f 5545 e8e3 49cd 3021 d406 3a1d 05be
0.17249918 -0.2056721 0.09951875 0.17028765 -0.09288417 0.10615334 0.18576834 0.03317292
0.019903751 0.18576834 0.21009515 -0.028749863 -0.21009515 -0.19682598 -0.084038064 0.004423056
0.12163404 0.19682598 0.15038389 0.10173029 -0.16144153 0.18134528 -0.09288417 0.19682598
0.046442084 0.035384446 -0.03317292 -0.15480696 -0.13048014 -0.24326807 -0.16144153 0.10394181
0.1747107 -0.20788363 -0.19461446 -0.09730723 0.03317292 -0.12384556 0.11057639 -0.075191945
0.17692223 -0.1747107 -0.17249918 -0.13048014 -0.06855737 0.10615334 -0.112787925 -0.10173029
0.10394181 0.20346057 0.19682598 -0.024326807 0.17913376 -0.21230668 0.17249918 -0.015480695
-0.035384446 0.03317292 -0.079615004 -0.11942251 -0.05307667 0.108364865 -0.17692223 0.22336432
-0.08624959 -0.084038064 -0.13269168 -0.16807613 -0.015480695 0.14153779 0.024326807 -0.108364865
0.08182653 0.09067264 -0.037595972 0.046442084 0.048653614 -0.15480696 0.18797988 -0.0066345837
0.042019032 0.14374931 -0.088461116 0.013269167 0.09730723 0.07076889 0.075191945 -0.026538335
0.002211528 -0.15038389 0.16144153 -0.1990375 -0.07740348 0.079615004 -0.11057639 0.004423056
0.088461116 -0.059711255 0.057499725 -0.17692223 0.002211528 0.18134528 0.037595972 0.21894126
-0.03096139 0.050865144 0.1990375 0.06855737 0.035384446 0.17249918 -0.16365306 0.07740348
-0.10394181 -0.20124903 0.08624959 0.024326807 0.037595972 -0.19682598 -0.13269168 0.026538335
0.12163404 -0.112787925 0.06413431 0.03096139 0.1349032 0.1349032 0.046442084 0.06192278
0.06855737 -0.16144153 -0.13269168 -0.10394181 -0.18134528 0.0950957 0.08624959 -0.028749863
-0.13711473 -0.14817236 -0.2056721 -0.048653614 -0.16586459 -0.16144153 0.12826861 -0.17692223
-0.10394181 0.019903751 0.1349032 0.21230668 -0.002211528 -0.1349032 0.08182653 -0.06413431
-0.037595972 0.08624959 -0.035384446 0.11721098 -0.10173029 -0.20788363 0.13932626 0.112787925
-0.18576834 -0.055288196 0.044230558 0.15259543 -0.12163404 0.19461446 -0.11499945 -0.07076889
0.039807502 0.108364865 -0.15259543 0.10615334 -0.14817236 -0.16586459 -0.11057639 -0.008846112
-0.11057639 0.20124903 0.0 0.11057639 0.18797988 -0.088461116 -0.07298042 -0.15701848
-0.07298042 0.17028765 0.050865144 -0.22336432 0.1901914 -0.0066345837 -0.03096139 -0.042019032
-0.2145182 -0.0110576395 -0.2056721 0.028749863 -0.06634584 -0.026538335 -0.084038064 -0.16365306
-0.1349032 0.03317292 -0.18576834 0.12605709 -0.19461446 0.06192278 0.002211528 0.12605709
0.1349032 0.022115279 -0.07076889 0.17028765 0.18134528 0.20124903 0.17028765 -0.19240293
-0.13711473 -0.13269168 0.15038389 0.048653614 -0.18134528 -0.14153779 0.108364865 0.088461116
0.03317292 0.2056721 -0.18355681 0.14374931 0.0950957 0.0 0.12384556 0.024326807
0.21009515 -0.09730723 -0.07076889 -0.07740348 0.042019032 0.13048014 0.15038389 0.17913376
-0.15480696 0.10394181 0.18797988 0.15259543 -0.05307667 -0.06413431 0.16144153 -0.112787925
0.10615334 0.07298042 -0.09730723 0.013269167 0.12826861 0.06413431 0.0110576395 -0.14596084

sequential/lstm/while/lstm_cell/BiasAdd/ReadVariableOp f4 [256]
00000000: 9b3d 18ba 0737 f1bb 1a35 f8bb 3626 f5bb
00000010: 76e7 adbb 9528 57b9 8475 cbbb 775d a4bb
00000020: fd2b 75bb e900 5abb 257e 13bc 23d6 00bc
00000030: a6dd 9dbb dd0e 0cbc 5051 833b d8be aabb
00000040: 1999 663b 8800 c6bb 163b 91bb 358b a7ba
00000050: 8ddd c3bb b5d4 9dbb d469 09bb 0000 0000
00000060: 9874 b7bb fa9e febb 3488 683a 0000 0000
00000070: 0de7 0e3a eec8 703b 8ae5 c4bb 9cc9 c5bb
00000080: c6ab 5f3b 5ef9 0fbc f726 0dbc 579f d3bb
00000090: 23f5 6dbb c73e dabb af15 c7bb 4a5f 25bc
000000a0: 1b54 f4bb e4a9 aebb 3127 9fbb aca6 94bb
000000b0: 59e1 8fbb 52bc f8bb 18d7 eebb aac9 bdbb
000000c0: b1ad 473a 8a8a c5bb 47e7 47bb 924e 5eb9
000000d0: 412d 1fbc 82ee 4db9 2264 8cbb 3f9e c0bb
000000e0: 014f 9ebb 5f38 29bb 1cd7 39bb f65d b73b
000000f0: 826d c3bb 4c86 92b9 08fe bcbb ace1 b8bb
00000100: a530 7e3f 001e 7e3f e008 7e3f cd19 7e3f
00000110: f5e7 7e3f 6037 803f 1578 7e3f ddc2 7e3f
00000120: 22c8 7f3f b691 7e3f e3e0 7d3f b68c 7e3f
00000130: 8ff0 7e3f 85b7 7d3f 23f4 7e3f eda2 7e3f
00000140: 6000 7f3f 6ff7 7d3f e5d4 7e3f ee6e 803f
00000150: 2277 7e3f c4c9 7e3f 5908 7f3f 0000 803f
00000160: 7b76 7e3f 266f 7e3f 3e2e 7f3f 0000 803f
00000170: b358 7f3f 8384 7e3f d075 7e3f 8777 7e3f
00000180: a85a 7f3f 35ec 7d3f f196 7e3f 05a5 7e3f
00000190: e3aa 7e3f d05f 7e3f 4c92 7e3f 2731 7d3f
000001a0: 395e 7e3f 57a4 7e3f be4b 803f 24c2 7e3f
000001b0: 80d3 7e3f 1213 7e3f ae64 7e3f 67ba 803f
000001c0: 1c0d 803f b47d 7e3f 6fda 7e3f 24c1 7f3f
000001d0: 7926 7e3f d695 7f3f 7afd 7e3f 5b93 7e3f
000001e0: f9d8 7e3f aba7 7f3f 2c4c 7f3f c71d 813f
000001f0: 1a78 7e3f 3a7d 7f3f dd80 7e3f 8f87 7e3f
00000200: af1b e1bb 36d0 cbbb 7806 1bbc c0ee efbb
00000210: 636f b3bb 3b6c a0bb b853 c7bb 80b3 f7bb
00000220: ec7f bb39 b996 e6ba 1ea1 07bc 5da1 07bb
00000230: 39e2 c2bb 37ec eabb 37f5 833a cd46 90bb
00000240: 08bc afbb 23d9 c2bb 9237 8ebb 7187 c83a
00000250: e90a c2bb 1929 93bb e38c 86bb 0000 0000
00000260: 2b15 aabb 37b4 fbbb d6ea 0aba 0000 0000
00000270: 07ec d4ba 44db c3b9 96e1 c7bb 3dac c1bb
00000280: 233c 3fbb cd1f 1cbc daf1 f7bb 8908 c0bb
00000290: 73f8 d6bb d568 e5bb 1a43 9eba f70d 2abc
000002a0: f5d0 03bc 0e25 9abb addc 03bb 118d 9dbb
000002b0: 38da 5fbb c5d8 fcbb bf07 00bc d077 c4bb
000002c0: e05d 8dbb a097 d6bb 3d3d 82bb 9b7e 5b3b
000002d0: 4ded d8bb f735 1aba 1c7b 87bb 2e7b eabb
000002e0: 8751 cdbb 19bb 403a 3ecb 1ebb af4f ed3a
000002f0: 1fbe c4bb 3c71 f5bb 6fc5 9fbb c57d bcbb
00000300: ec0b d3bb 5467 403b 66f8 47bb 751f ecbb
00000310: 113a b1bb 6f23 c8bb be20 cebb 9112 b5bb
00000320: f597 93ba 52c7 b4bb 66da 17bc d9d4 f0bb
00000330: c373 8fbb 5170 08bc 3702 723b b40c d0bb
00000340: e65c 95ba 98b5 d4bb db94 8ebb a1f5 f23b
00000350: 2157 c4bb c7e5 9cbb c70c 05bc 0000 0000
00000360: 2132 bbbb 4b93 f3bb 17f0 f2ba 0000 0000
00000370: 2409 77bb d5aa 1e3c 2ed0 c4bb 2056 c6bb
00000380: 6c98 8f3b 0bec 1cbc c589 acbb a293 b5bb
00000390: c620 acbb 0758 dcbb 6c15 44b8 e4b2 24bc
000003a0: 6dcd edbb 95f4 adbb 5397 10bb af2f 9bbb
000003b0: 0e65 89bb ac12 bfbb 592d ffbb 0751 bebb
000003c0: 4c9c 883a cf8f c4bb 38e2 63bb 0317 19bb
000003d0: db58 2dbc 2032 0139 8d2f 86bb 6d86 f4bb
000003e0: b829 acbb b5f4 b4bb 3c1c 3ebb 29f3 493c
000003f0: 71d6 c3bb 14d6 113a da62 bebb c554 c2bb
-0.000580752 -0.007361296 -0.0075746896 -0.0074813617 -0.0053071333 -0.00020519116 -0.0062090773 -0.0050160247
-0.0037410252 -0.0033264703 -0.009002243 -0.007863554 -0.0048176823 -0.008548466 0.004007496 -0.0052107386
0.0035186468 -0.006042544 -0.0044320924 -0.0012782576 -0.0059773386 -0.0048166164 -0.002096762 0.0
-0.005598616 -0.0077704163 0.00088703935 0.0 0.00054512994 0.0036740857 -0.0060088085 -0.0060359966
0.0034129485 -0.008787481 -0.008615247 -0.006458204 -0.0036309443 -0.0066603157 -0.006075583 -0.010093519
-0.007456315 -0.005330311 -0.004856967 -0.0045364704 -0.004390877 -0.007590809 -0.0072888248 -0.0057918625
0.00076171296 -0.006028478 -0.0030502842 -0.0002120084 -0.009715379 -0.00019639175 -0.0042843977 -0.0058782394
-0.0048311953 -0.0025820953 -0.0028356975 0.005595918 -0.005963982 -0.0002794735 -0.0057675876 -0.0056421366
0.99292976 0.99264526 0.9923229 0.9925812 0.9957269 1.0016899 0.9940198 0.9951609
0.99914753 0.9944109 0.99171275 0.9943346 0.99585813 0.99108154 0.99591273 0.99467355
0.9960995 0.9920568 0.995436 1.0033853 0.9940053 0.9952662 0.9962211 1.0
0.99399537 0.9938835 0.99679935 1.0 0.9974472 0.99420947 0.9939852 0.99401134
0.99747705 0.9918855 0.9944907 0.9947055 0.994795 0.9936495 0.9944198 0.98903126
0.9936252 0.9946951 1.0023115 0.99514985 0.99541473 0.9924785 0.99372375 1.0056885
1.0004001 0.9941056 0.99552053 0.99904084 0.99277455 0.99838006 0.99605525 0.99443597
0.99549824 0.99865216 0.99725604 1.0087212 0.9940201 0.99800456 0.9941538 0.99425596
-0.006869755 -0.006219889 -0.0094619915 -0.0073221624 -0.005475925 -0.0048957146 -0.006082978 -0.00755924
0.0003576273 -0.0017592526 -0.008278159 -0.0020695545 -0.005947378 -0.0071692723 0.0010067587 -0.0044029714
-0.0053629912 -0.005946295 -0.0043401206 0.0015299154 -0.0059217107 -0.004490983 -0.0041061505 0.0
-0.0051905117 -0.0076813954 -0.00052992755 0.0 -0.0016244658 -0.00037356664 -0.00609989 -0.005910425
-0.0029180131 -0.009529066 -0.0075666727 -0.0058603925 -0.006560379 -0.0070010223 -0.0012074441 -0.010379306
-0.008045425 -0.0047041243 -0.0020120547 -0.004808076 -0.0034157168 -0.0077162706 -0.007814347 -0.005995728
-0.0043141693 -0.006548837 -0.0039745853 0.003349221 -0.0066200853 -0.0005882675 -0.004134549 -0.0071557974
-0.0062658223 0.00073520985 -0.0024230029 0.0018105413 -0.0060041095 -0.007490305 -0.004875831 -0.0057522976
-0.00644063 0.0029358463 -0.0030513047 -0.0072058984 -0.0054085334 -0.0061077396 -0.0062905243 -0.005525895
-0.0011260497 -0.005516925 -0.009268379 -0.007349592 -0.0043778135 -0.00832756 0.003692759 -0.0063491706
-0.0011395484 -0.006491374 -0.004351241 0.007414535 -0.005991832 -0.004788134 -0.008120722 0.0
-0.005712763 -0.00743333 -0.0018534687 0.0 -0.0037694657 0.009684284 -0.0060062623 -0.0060527474
0.004382184 -0.009577761 -0.005265447 -0.005541281 -0.0052529303 -0.006724361 -4.6749992e-05 -0.0100524165
-0.0072571547 -0.0053086975 -0.0022062853 -0.004735909 -0.004192955 -0.0058310833 -0.0077873883 -0.005807999
0.0010422557 -0.0059985886 -0.0034772288 -0.0023359663 -0.010580267 0.00012321072 -0.004095024 -0.007462314
-0.0052539967 -0.0055223354 -0.0029008528 0.01232604 -0.005976491 0.0005563211 -0.005810124 -0.0059305155

sequential/lstm/while/lstm_cell/MatMul1 i1 [256, 1662] scale=0.0019448719 zero_point=0
00000000: 10f8 140e f507 15e9 02fc f911 fef4 01f0
00000010: fee9 e4f4 15ea ed17 f7eb 0bf3 fff2 fd07
00000020: 0bf0 13f0 e4e7 12ff 121a 06f0 0e06 07f6
00000030: 15f3 ef04 fc1b e911 1407 14e5 f511 13ff
00000040: 1406 faf1 f4f9 07f5 e90e 030f ec03 ef0d
00000050: 1afc 20fa 0900 0e1c fd14 ee19 13ec fb06
00000060: 19e8 0c17 1c04 11f6 0ff4 0e14 f511 ff17
00000070: e817 f200 ed06 e715 0914 0bf0 151a ebe7
00000080: 0dfd ffed 071a 1913 e812 ea16 13ef 0712
00000090: fcfa fb00 1bea 0f19 1510 1cf2 19ee ecfc
000000a0: fde6 fd11 ef08 fefb 12f7 ee12 f407 efe4
000000b0: 0318 f603 14e4 17e7 f510 f3fb fb16 f11a
000000c0: 1cea fdfb 1804 0d09 fe08 07f1 1600 f510
000000d0: 0d19 eef0 02f5 e713 f70b 0517 051d 000f
000000e0: f816 e612 0b02 fe14 f811 fae6 0f19 e4f7
000000f0: 01ea fdfe f304 0f0b 0d0d 0fec f60e 15f8
0.03111795 -0.015558975 0.038897436 0.027228206 -0.02139359 0.013614103 0.04084231 -0.044732053
0.0038897437 -0.0077794874 -0.013614103 0.033062823 -0.0038897437 -0.023338463 0.0019448719 -0.03111795
-0.0038897437 -0.044732053 -0.054456413 -0.023338463 0.04084231 -0.04278718 -0.036952566 0.044732053
-0.017503846 -0.04084231 0.02139359 -0.025283335 -0.0019448719 -0.027228206 -0.005834616 0.013614103
0.02139359 -0.03111795 0.036952566 -0.03111795 -0.054456413 -0.048621796 0.035007693 -0.0019448719
0.035007693 0.05056667 0.011669232 -0.03111795 0.027228206 0.011669232 0.013614103 -0.019448718
0.04084231 -0.025283335 -0.033062823 0.0077794874 -0.0077794874 0.05251154 -0.044732053 0.033062823
0.038897436 0.013614103 0.038897436 -0.05251154 -0.02139359 0.033062823 0.036952566 -0.0019448719
0.038897436 0.011669232 -0.011669232 -0.029173078 -0.023338463 -0.013614103 0.013614103 -0.02139359
-0.044732053 0.027228206 0.005834616 0.029173078 -0.038897436 0.005834616 -0.033062823 0.025283335
0.05056667 -0.0077794874 0.0622359 -0.011669232 0.017503846 0.0 0.027228206 0.054456413
-0.005834616 0.038897436 -0.035007693 0.048621796 0.036952566 -0.038897436 -0.009724359 0.011669232
0.048621796 -0.046676926 0.023338463 0.044732053 0.054456413 0.0077794874 0.033062823 -0.019448718
0.029173078 -0.023338463 0.027228206 0.038897436 -0.02139359 0.033062823 -0.0019448719 0.044732053
-0.046676926 0.044732053 -0.027228206 0.0 -0.036952566 0.011669232 -0.048621796 0.04084231
0.017503846 0.038897436 0.02139359 -0.03111795 0.04084231 0.05056667 -0.04084231 -0.048621796
0.025283335 -0.005834616 -0.0019448719 -0.036952566 0.013614103 0.05056667 0.048621796 0.036952566
-0.046676926 0.035007693 -0.04278718 0.04278718 0.036952566 -0.033062823 0.013614103 0.035007693
-0.0077794874 -0.011669232 -0.009724359 0.0 0.05251154 -0.04278718 0.029173078 0.048621796
0.04084231 0.03111795 0.054456413 -0.027228206 0.048621796 -0.035007693 -0.038897436 -0.0077794874
-0.005834616 -0.05056667 -0.005834616 0.033062823 -0.033062823 0.015558975 -0.0038897437 -0.009724359
0.035007693 -0.017503846 -0.035007693 0.035007693 -0.023338463 0.013614103 -0.033062823 -0.054456413
0.005834616 0.046676926 -0.019448718 0.005834616 0.038897436 -0.054456413 0.044732053 -0.048621796
-0.02139359 0.03111795 -0.025283335 -0.009724359 -0.009724359 0.04278718 -0.029173078 0.05056667
0.054456413 -0.04278718 -0.005834616 -0.009724359 0.046676926 0.0077794874 0.025283335 0.017503846
-0.0038897437 0.015558975 0.013614103 -0.029173078 0.04278718 0.0 -0.02139359 0.03111795
0.025283335 0.048621796 -0.035007693 -0.03111795 0.0038897437 -0.02139359 -0.048621796 0.036952566
-0.017503846 0.02139359 0.009724359 0.044732053 0.009724359 0.056401283 0.0 0.029173078
-0.015558975 0.04278718 -0.05056667 0.035007693 0.02139359 0.0038897437 -0.0038897437 0.038897436
-0.015558975 0.033062823 -0.011669232 -0.05056667 0.029173078 0.048621796 -0.054456413 -0.017503846
0.0019448719 -0.04278718 -0.005834616 -0.0038897437 -0.025283335 0.0077794874 0.029173078 0.02139359
0.025283335 0.025283335 0.029173078 -0.038897436 -0.019448718 0.027228206 0.04084231 -0.015558975

sequential/lstm/while/lstm_cell/MatMul_1 i1 [256, 64] scale=0.002029489 zero_point=0
00000000: d9d9 d8c2 fc13 e4fc cf1e fc10 df0e 0c1a
00000010: da08 3920 361e fc19 16e4 eef6 f82f 23ef
00000020: f103 f418 0202 3314 e91e 1c09 ee5b 20ee
00000030: eeff 00ea b81c 4815 1d04 cbfb 26d9 e710
00000040: deeb 00ec 07f3 2916 fdf3 19f6 2cf4 2c0e
00000050: 2010 e2ef c0c7 07eb 03f2 0af1 f504 0a34
00000060: 0b03 b91e 1e01 102e f820 d91b 0d17 e71e
00000070: 15a8 d80e c617 e3e9 1821 f7a1 04fa 2ceb
00000080: cad1 f4f1 ead9 fae9 e7ef f4dc fd0f ede6
00000090: e111 14e2 f405 9c01 202c 011f d1d9 1511
000000a0: eef7 1ff3 0608 f3c8 f3f9 e115 be0f 1bee
000000b0: f618 01fb 0ff4 3bed d00e f70e 21e8 2c36
000000c0: f31b ed30 2ed7 cc3a 3805 e2e5 f517 0000
000000d0: 09fc 2ff9 c8c6 c5fb 2520 f601 ed33 ffad
000000e0: 03fc f416 cc0a 49f9 cff0 1e01 1d09 39d7
000000f0: d51f f3e3 16e6 eae9 0412 2420 fe04 f1f4
-0.07915007 -0.07915007 -0.08117956 -0.12582833 -0.008117956 0.03856029 -0.056825694 -0.008117956
-0.09944496 0.06088467 -0.008117956 0.032471824 -0.066973135 0.028412847 0.02435387 0.052766714
-0.07712058 0.016235912 0.11568087 0.06494365 0.10959241 0.06088467 -0.008117956 0.050737225
0.04464876 -0.056825694 -0.036530804 -0.02029489 -0.016235912 0.09538598 0.071032114 -0.034501314
-0.030442335 0.0060884673 -0.02435387 0.04870774 0.004058978 0.004058978 0.10350394 0.04058978
-0.04667825 0.06088467 0.056825694 0.018265402 -0.036530804 0.1846835 0.06494365 -0.036530804
-0.036530804 -0.002029489 0.0 -0.04464876 -0.14612322 0.056825694 0.14612322 0.04261927
0.058855183 0.008117956 -0.10756292 -0.010147445 0.07712058 -0.07915007 -0.050737225 0.032471824
-0.06900263 -0.04261927 0.0 -0.04058978 0.014206423 -0.026383357 0.08320905 0.04464876
-0.0060884673 -0.026383357 0.050737225 -0.02029489 0.08929752 -0.02435387 0.08929752 0.028412847
0.06494365 0.032471824 -0.06088467 -0.034501314 -0.1298873 -0.11568087 0.014206423 -0.04261927
0.0060884673 -0.028412847 0.02029489 -0.030442335 -0.02232438 0.008117956 0.02029489 0.10553343
0.02232438 0.0060884673 -0.14409372 0.06088467 0.06088467 0.002029489 0.032471824 0.0933565
-0.016235912 0.06494365 -0.07915007 0.054796204 0.026383357 0.04667825 -0.050737225 0.06088467
0.04261927 -0.17859504 -0.08117956 0.028412847 -0.11771037 0.04667825 -0.058855183 -0.04667825
0.04870774 0.066973135 -0.018265402 -0.19280146 0.008117956 -0.012176935 0.08929752 -0.04261927
-0.10959241 -0.09538598 -0.02435387 -0.030442335 -0.04464876 -0.07915007 -0.012176935 -0.04667825
-0.050737225 -0.034501314 -0.02435387 -0.07306161 -0.0060884673 0.030442335 -0.03856029 -0.052766714
-0.06291416 0.034501314 0.04058978 -0.06088467 -0.02435387 0.010147445 -0.2029489 0.002029489
0.06494365 0.08929752 0.002029489 0.06291416 -0.09538598 -0.07915007 0.04261927 0.034501314
-0.036530804 -0.018265402 0.06291416 -0.026383357 0.012176935 0.016235912 -0.026383357 -0.11365139
-0.026383357 -0.014206423 -0.06291416 0.04261927 -0.13394627 0.030442335 0.054796204 -0.036530804
-0.02029489 0.04870774 0.002029489 -0.010147445 0.030442335 -0.02435387 0.11973985 -0.03856029
-0.09741548 0.028412847 -0.018265402 0.028412847 0.066973135 -0.04870774 0.08929752 0.10959241
-0.026383357 0.054796204 -0.03856029 0.09741548 0.0933565 -0.08320905 -0.10553343 0.11771037
0.11365139 0.010147445 -0.06088467 -0.054796204 -0.02232438 0.04667825 0.0 0.0
0.018265402 -0.008117956 0.09538598 -0.014206423 -0.11365139 -0.11771037 -0.11973985 -0.010147445
0.075091094 0.06494365 -0.02029489 0.002029489 -0.03856029 0.10350394 -0.002029489 -0.16844758
0.0060884673 -0.008117956 -0.02435387 0.04464876 -0.10553343 0.02029489 0.1481527 -0.014206423
-0.09944496 -0.032471824 0.06088467 0.002029489 0.058855183 0.018265402 0.11568087 -0.08320905
-0.087268025 0.06291416 -0.026383357 -0.058855183 0.04464876 -0.052766714 -0.04464876 -0.04667825
0.008117956 0.036530804 0.07306161 0.06494365 -0.004058978 0.008117956 -0.030442335 -0.02435387

sequential/lstm_1/while/lstm_cell_1/BiasAdd/ReadVariableOp f4 [512]
00000000: 8187 0fbc 2ae1 72bb e302 ddbb 3a2f 3ebb
00000010: b4ac 2dbc d6a2 0cbc 03e5 18bc 92a7 aa3b
00000020: a78b 80ba d8c0 5cbc 3fc9 44bc 1278 89bb
00000030: 0098 80bb 0c8c 0739 1766 9e3b f108 373a
00000040: db29 05bc 411c ebba 1bb6 15bc 45ab ecbb
00000050: 3efb 05bc d1a4 cdbb 13ad 64ba d578 0dbc
00000060: d025 54ba 493f b1bc 6303 6eba e5dd d9b9
00000070: 1b0c b8bb 469d 2fbc d0ee ebbb edf7 b5bc
00000080: 1069 c73b afa9 93bb 618b 503b e79a edbb
00000090: e796 60ba 46f2 c73b 7acf ec3b eac8 9dbc
000000a0: e82d b4bb 2902 593c 5b66 51bc b808 26bc
000000b0: da9f 473b 7af1 89bb c102 4dbc cc4c f5bb
000000c0: 5eef 3e3c cede 3b3a 0000 0000 a923 803a
000000d0: 808c 7f3a 15cf 1ebb b702 5ebb 312a 953b
000000e0: bcdb 1abc 88db db3a 9f8f 0bbc af34 33bb
000000f0: 1ff0 a93b 13b1 60bc ef71 a63b dfb7 213c
00000100: 98b6 c7ba 16af cebb fee2 2a3b e059 99bb
00000110: 3fdb c53b 3e2e 97bc bc45 a13c 6f77 39bc
00000120: 0b9d 8b3a ee6d 2a3a 0006 f7bb 28b1 b8bb
00000130: 2e13 fdbb 5269 aeba 8a4f 0cbc c7be 17bc
00000140: ad2d b3bb ff0f 81bc a1ef 96ba e1cc d1bb
00000150: 37c3 0dba 7471 a53d 9f09 08bb ef7a 083b
00000160: b0d0 fbbb 3335 823d 603f 853b 7fef c23b
00000170: 67b2 bcb9 7983 00bb 3d5c bcbc 91f5 73bc
00000180: 883e 38ba 8226 8cbb ba53 3ebb 4d39 7fbb
00000190: 0943 65bb 4249 5b3c 0b3c f8ba baac 173c
000001a0: 7d57 693b 84fe 09bc 5c25 853b 61d0 99bb
000001b0: b7cc 4a3a ea4d 13bc a442 8e39 f6e0 8439
000001c0: 4b03 01bc 7543 8cb9 4776 24bb 4d7b fcbb
000001d0: 9250 2b3c 6322 413c af9a 6cbb 971d 803b
000001e0: 0120 ccba 0bc9 c8bb 1081 25bc ccdb 0cbb
000001f0: 105a d6bc 248b 043c 1e1a b93a c82a 373c
00000200: 1ed4 7d3f 7614 803f 406a 7e3f 2f8a 7e3f
00000210: 8781 7d3f 0ed5 7d3f b3cd 7d3f b09d 803f
00000220: d4f4 7f3f 764d 803f ec4b 7c3f 77db 7d3f
00000230: 6d1c 7f3f 4c08 803f 4853 803f 2d6e 7f3f
00000240: 070a 7e3f fc91 7f3f 252c 7d3f 8448 7e3f
00000250: 2240 7e3f 7d1a 803f cb0f 803f 06e4 7d3f
00000260: 62cb 7f3f 6e0e 7c3f 2124 7f3f 2f1a 803f
00000270: f277 7e3f 6ae2 7d3f 8d13 7e3f 67de 7d3f
00000280: 5dc7 803f 5a21 7e3f 235c 7e3f 0ec6 7d3f
00000290: 81e4 7f3f f17d 803f 3eeb 803f 2470 7b3f
000002a0: f26e 7e3f 8958 813f f8fc 7e3f ce72 7d3f
000002b0: cb41 7f3f 48a2 7e3f 5e34 7d3f 17ee 7d3f
000002c0: 8759 813f 318d 803f 0000 803f 17d2 7f3f
000002d0: 47c2 803f 99a4 7f3f abef 7c3f d29d 803f
000002e0: 3a53 7f3f 4d7e 803f 503f 7e3f 959c 7f3f
000002f0: d3ab 803f 374d 7f3f 40a3 803f 987c 803f
00000300: d4c3 7f3f cb54 7e3f 432e 803f 25e2 7e3f
00000310: 5086 803f 2b91 7c3f 3413 823f 8922 7e3f
00000320: e6d0 7f3f 1f86 803f 774a 7c3f 0f35 803f
00000330: 5b4b 7d3f 466f 7e3f 5791 7f3f d7e5 7e3f
00000340: 86a5 7e3f 13e3 7f3f 815e 803f c334 7e3f
00000350: 5cf4 7f3f e92f 873f a65e 7f3f 1205 803f
00000360: d215 7e3f 96e6 923f 933b 803f 4e99 803f
00000370: 87cf 803f 549e 7e3f d6ae 7b3f 43fd 7e3f
00000380: 03ed 7e3f 8715 803f c446 7e3f ef4e 803f
00000390: 4ce0 7f3f 06a8 803f 6979 7f3f 13c5 7f3f
000003a0: 13de 803f dae8 7c3f 6281 803f 7f4d 7e3f
000003b0: 7ad7 7d3f dcdb 7d3f 4621 7f3f 0e4e 803f
000003c0: 9640 7d3f dcb1 803f 92a5 7f3f 7d19 7e3f
000003d0: 9f59 803f 3be9 823f 9ba6 7d3f 0fb5 803f
000003e0: 0ad2 7f3f 9069 7f3f 92c9 7d3f abb2 7e3f
000003f0: 4fca 793f b038 803f d90b 803f 86f6 803f
-0.008760334 -0.0037060478 -0.006744729 -0.0029019848 -0.010600258 -0.008583745 -0.009331944 0.005207964
-0.0009807245 -0.013473712 -0.012010871 -0.0041952217 -0.00392437 0.00012926775 0.0048339474 0.00069822284
-0.008127655 -0.0017937497 -0.009137656 -0.0072225654 -0.008177577 -0.006275751 -0.00087233 -0.008634766
-0.00080927927 -0.021636622 -0.0009079484 -0.0004155479 -0.0056166775 -0.010718649 -0.0072000995 -0.022212947
0.0060855225 -0.004506312 0.0031821358 -0.007251132 -0.0008567408 0.0061018793 0.0072268816 -0.019260842
-0.0054986365 0.013245144 -0.012780751 -0.010133915 0.003046027 -0.0042096945 -0.012512864 -0.0074859615
0.011653749 0.00071666844 0.0 0.0009776253 0.0009748414 -0.0024232317 -0.003387613 0.0045521487
-0.009451803 0.00167738 -0.008518129 -0.0027344634 0.0051860954 -0.013714093 0.0050795 0.009870498
-0.0015236912 -0.006307493 0.002607524 -0.0046799034 0.006038099 -0.018454667 0.019686572 -0.011319979
0.0010651661 0.0006501366 -0.007538557 -0.005636353 -0.0077232337 -0.0013306534 -0.008563885 -0.009261793
-0.0054680915 -0.015754698 -0.0011515507 -0.0064025973 -0.00054078124 0.0807828 -0.0020757688 0.0020825227
-0.0076847896 0.06357803 0.004066393 0.0059489603 -0.00035991074 -0.0019609614 -0.022993201 -0.014890091
-0.0007028361 -0.0042770514 -0.0029041604 -0.0038944066 -0.0034982583 0.013384165 -0.0018938793 0.00925749
0.0035605126 -0.008422498 0.0040632915 -0.00469403 0.00077361934 -0.008990744 0.00027134002 0.0002534461
-0.00787432 -0.0002675314 -0.0025094913 -0.0077051283 0.010456221 0.011787984 -0.003610294 0.0039097774
-0.0015573503 -0.006127482 -0.010101572 -0.0021493314 -0.026165992 0.008089814 0.0014122163 0.011179633
0.9915179 1.0006244 0.99380875 0.994296 0.9902577 0.9915322 0.99142 1.0048122
0.99982953 1.0023639 0.9855335 0.99163 0.9965275 1.0002532 1.0025415 0.9977749
0.9923405 0.9983213 0.98895484 0.993294 0.9931661 1.0008084 1.000482 0.9917606
0.9991971 0.9845952 0.99664503 1.0007991 0.9940177 0.99173605 0.9924858 0.99167484
1.0060841 0.9926964 0.9935934 0.9913033 0.99958044 1.0038434 1.007179 0.9821799
0.9938804 1.0105144 0.9960475 0.99003303 0.9970977 0.9946637 0.9890803 0.9919142
1.0105447 1.0043088 1.0 0.99929947 1.0059289 0.9986053 0.98803204 1.0048163
0.9973637 1.0038544 0.9931536 0.998483 1.0052437 0.99727196 1.004982 1.0038023
0.99908185 0.99348134 1.0014118 0.9956382 1.0040989 0.9865901 1.016211 0.99271446
0.9992813 1.004093 0.98551124 1.0016192 0.9894311 0.9938854 0.99831146 0.9956946
0.9947132 0.9995586 1.002884 0.9929926 0.9998224 1.0561496 0.997538 1.0001547
0.99252045 1.1476619 1.0018181 1.0046785 1.0063332 0.9946034 0.98313653 0.99605197
0.995804 1.000657 0.9932673 1.0024089 0.99951625 1.0051277 0.9979463 0.99910086
1.0067772 0.98792803 1.0039485 0.99337 0.99156916 0.99163604 0.99660146 1.002382
0.98926675 1.0054278 0.99862015 0.9925764 1.002735 1.0227426 0.99082345 1.0055255
0.9992987 0.9977045 0.99135697 0.99491376 0.97574323 1.00173 1.0003616 1.0075233

sequential/lstm_1/while/lstm_cell_1/MatMul1 i1 [512, 64] scale=0.0027393627 zero_point=0
00000000: 04f4 1621 def6 f70c 210e 1f04 13f4 01fe
00000010: ee09 130a 0d0d 02f3 fadf de07 1ee1 fae6
00000020: 0c04 e6e7 dcf9 f705 f3e9 14e9 f302 2123
00000030: 061d 19dd e30e fa04 fee4 f71a 0322 09f5
00000040: e209 23ea e7df 230e f50a d90c e4fa e8e5
00000050: dc01 010f 22e4 2012 f4db ebf5 1ce1 f20c
00000060: 1a21 df23 eef9 dd13 12fb 03e3 f2f1 12ec
00000070: 0521 f3e8 05ed 22fd ed21 0004 fe26 e7fc
00000080: f3e9 21f5 f618 ff16 05e4 fce7 091a d900
00000090: 21d9 f3d9 03fc 0b0f f7e8 1d0e 0400 f3f0
000000a0: 1df3 ebf6 1704 0efd 1ce9 f0e7 fe10 e3e7
000000b0: 0307 1f01 f108 1f11 dcf1 f70e 06e4 f9ec
000000c0: 0bf6 e624 24dd 1add 0f08 fb0e df00 02db
000000d0: e11f 12e8 1908 27f3 24fd 031f 20fe 010f
000000e0: fa12 fef7 fc05 ec0e 18ea fde4 f925 da1e
000000f0: e0eb 0310 dfee fbf2 eeeb dc26 020b 05f0
0.010957451 -0.032872353 0.060265977 0.09039897 -0.09313833 -0.027393626 -0.024654264 0.032872353
0.09039897 0.038351078 0.08492024 0.010957451 0.05204789 -0.032872353 0.0027393627 -0.0054787253
-0.049308527 0.024654264 0.05204789 0.027393626 0.035611715 0.035611715 0.0054787253 -0.035611715
-0.016436176 -0.09039897 -0.09313833 0.019175539 0.08218088 -0.08492024 -0.016436176 -0.07122343
0.032872353 0.010957451 -0.07122343 -0.06848407 -0.098617055 -0.019175539 -0.024654264 0.013696813
-0.035611715 -0.06300534 0.054787252 -0.06300534 -0.035611715 0.0054787253 0.09039897 0.09587769
0.016436176 0.07944152 0.06848407 -0.09587769 -0.07944152 0.038351078 -0.016436176 0.010957451
-0.0054787253 -0.076702155 -0.024654264 0.07122343 0.008218088 0.09313833 0.024654264 -0.030132988
-0.08218088 0.024654264 0.09587769 -0.060265977 -0.06848407 -0.09039897 0.09587769 0.038351078
-0.030132988 0.027393626 -0.10683514 0.032872353 -0.076702155 -0.016436176 -0.065744705 -0.07396279
-0.098617055 0.0027393627 0.0027393627 0.04109044 0.09313833 -0.076702155 0.087659605 0.049308527
-0.032872353 -0.10135642 -0.057526615 -0.030132988 0.076702155 -0.08492024 -0.038351078 0.032872353
0.07122343 0.09039897 -0.09039897 0.09587769 -0.049308527 -0.019175539 -0.09587769 0.05204789
0.049308527 -0.013696813 0.008218088 -0.07944152 -0.038351078 -0.04109044 0.049308527 -0.054787252
0.013696813 0.09039897 -0.035611715 -0.065744705 0.013696813 -0.05204789 0.09313833 -0.008218088
-0.05204789 0.09039897 0.0 0.010957451 -0.0054787253 0.10409578 -0.06848407 -0.010957451
-0.035611715 -0.06300534 0.09039897 -0.030132988 -0.027393626 0.065744705 -0.0027393627 0.060265977
0.013696813 -0.076702155 -0.010957451 -0.06848407 0.024654264 0.07122343 -0.10683514 0.0
0.09039897 -0.10683514 -0.035611715 -0.10683514 0.008218088 -0.010957451 0.030132988 0.04109044
-0.024654264 -0.065744705 0.07944152 0.038351078 0.010957451 0.0 -0.035611715 -0.043829802
0.07944152 -0.035611715 -0.057526615 -0.027393626 0.06300534 0.010957451 0.038351078 -0.008218088
0.076702155 -0.06300534 -0.043829802 -0.06848407 -0.0054787253 0.043829802 -0.07944152 -0.06848407
0.008218088 0.019175539 0.08492024 0.0027393627 -0.04109044 0.021914901 0.08492024 0.046569165
-0.098617055 -0.04109044 -0.024654264 0.038351078 0.016436176 -0.076702155 -0.019175539 -0.054787252
0.030132988 -0.027393626 -0.07122343 0.098617055 0.098617055 -0.09587769 0.07122343 -0.09587769
0.04109044 0.021914901 -0.013696813 0.038351078 -0.09039897 0.0 0.0054787253 -0.10135642
-0.08492024 0.08492024 0.049308527 -0.065744705 0.06848407 0.021914901 0.10683514 -0.035611715
0.098617055 -0.008218088 0.008218088 0.08492024 0.087659605 -0.0054787253 0.0027393627 0.04109044
-0.016436176 0.049308527 -0.0054787253 -0.024654264 -0.010957451 0.013696813 -0.054787252 0.038351078
0.065744705 -0.060265977 -0.008218088 -0.076702155 -0.019175539 0.10135642 -0.10409578 0.08218088
-0.087659605 -0.057526615 0.008218088 0.043829802 -0.09039897 -0.049308527 -0.013696813 -0.038351078
-0.049308527 -0.057526615 -0.098617055 0.10409578 0.0054787253 0.030132988 0.013696813 -0.043829802

sequential/lstm_1/while/lstm_cell_1/MatMul_1 i1 [512, 128] scale=0.0025827703 zero_point=0
00000000: 0300 dfe3 0507 0202 0efe 19f3 f00e f3d7
00000010: 1ff8 03ff fc19 0308 1622 e1fe fefa f2f5
00000020: 09eb 14fc 14fe 0a0c 0204 16f4 fdf1 080b
00000030: fef9 08f6 ee00 15f1 f3df 0adf 1809 f7f6
00000040: dae5 06fb e3f9 ff11 18f5 f70c f2e8 081e
00000050: e8f2 e7dc eed7 f6fb f2d9 00f1 0903 10f4
00000060: 01fe fe0e 0c1d 0204 070f 0ffa e4da 09f3
00000070: 1dec 1de5 ee0a 1013 e0e6 0302 ece3 0bfe
00000080: 030c f500 ee02 f9d5 02ea fc1f e112 0517
00000090: 19eb 0405 15f5 0613 0cf6 0122 f909 fcfe
000000a0: f4ea c4fb f20a f0f9 0000 fdfd f005 f9e1
000000b0: 00f5 ee06 f3f2 03ef f203 ebf0 110a f90a
000000c0: 11fe 110d 0afd f2f5 fa09 fbe7 e2f5 17ff
000000d0: 1bee 0306 fef1 f9ff fcf6 0aed f5db 101a
000000e0: 1111 ebfa 0efc 16e0 061e 06eb 1d1e 17e7
000000f0: 1ef2 f6d6 f4f1 ffe5 04f8 0b06 07e3 06f6
0.007748311 0.0 -0.08523142 -0.07490034 0.012913851 0.018079393 0.0051655406 0.0051655406
0.036158785 -0.0051655406 0.06456926 -0.033576015 -0.041324325 0.036158785 -0.033576015 -0.10589358
0.080065876 -0.020662162 0.007748311 -0.0025827703 -0.010331081 0.06456926 0.007748311 0.020662162
0.056820948 0.08781419 -0.080065876 -0.0051655406 -0.0051655406 -0.015496622 -0.036158785 -0.028410474
0.023244932 -0.054238178 0.051655404 -0.010331081 0.051655404 -0.0051655406 0.025827702 0.030993244
0.0051655406 0.010331081 0.056820948 -0.030993244 -0.007748311 -0.038741555 0.020662162 0.028410474
-0.0051655406 -0.018079393 0.020662162 -0.025827702 -0.046489865 0.0 0.054238178 -0.038741555
-0.033576015 -0.08523142 0.025827702 -0.08523142 0.061986487 0.023244932 -0.023244932 -0.025827702
-0.09814527 -0.0697348 0.015496622 -0.012913851 -0.07490034 -0.018079393 -0.0025827703 0.043907095
0.061986487 -0.028410474 -0.023244932 0.030993244 -0.036158785 -0.061986487 0.020662162 0.07748311
-0.061986487 -0.036158785 -0.06456926 -0.09297973 -0.046489865 -0.10589358 -0.025827702 -0.012913851
-0.036158785 -0.10072804 0.0 -0.038741555 0.023244932 0.007748311 0.041324325 -0.030993244
0.0025827703 -0.0051655406 -0.0051655406 0.036158785 0.030993244 0.07490034 0.0051655406 0.010331081
0.018079393 0.038741555 0.038741555 -0.015496622 -0.07231757 -0.09814527 0.023244932 -0.033576015
0.07490034 -0.051655404 0.07490034 -0.0697348 -0.046489865 0.025827702 0.041324325 0.049072634
-0.08264865 -0.06715203 0.007748311 0.0051655406 -0.051655404 -0.07490034 0.028410474 -0.0051655406
0.007748311 0.030993244 -0.028410474 0.0 -0.046489865 0.0051655406 -0.018079393 -0.11105912
0.0051655406 -0.056820948 -0.010331081 0.080065876 -0.080065876 0.046489865 0.012913851 0.059403718
0.06456926 -0.054238178 0.010331081 0.012913851 0.054238178 -0.028410474 0.015496622 0.049072634
0.030993244 -0.025827702 0.0025827703 0.08781419 -0.018079393 0.023244932 -0.010331081 -0.0051655406
-0.030993244 -0.056820948 -0.15496622 -0.012913851 -0.036158785 0.025827702 -0.041324325 -0.018079393
0.0 0.0 -0.007748311 -0.007748311 -0.041324325 0.012913851 -0.018079393 -0.080065876
0.0 -0.028410474 -0.046489865 0.015496622 -0.033576015 -0.036158785 0.007748311 -0.043907095
-0.036158785 0.007748311 -0.054238178 -0.041324325 0.043907095 0.025827702 -0.018079393 0.025827702
0.043907095 -0.0051655406 0.043907095 0.033576015 0.025827702 -0.007748311 -0.036158785 -0.028410474
-0.015496622 0.023244932 -0.012913851 -0.06456926 -0.07748311 -0.028410474 0.059403718 -0.0025827703
0.0697348 -0.046489865 0.007748311 0.015496622 -0.0051655406 -0.038741555 -0.018079393 -0.0025827703
-0.010331081 -0.025827702 0.025827702 -0.049072634 -0.028410474 -0.0955625 0.041324325 0.06715203
0.043907095 0.043907095 -0.054238178 -0.015496622 0.036158785 -0.010331081 0.056820948 -0.08264865
0.015496622 0.07748311 0.015496622 -0.054238178 0.07490034 0.07748311 0.059403718 -0.06456926
0.07748311 -0.036158785 -0.025827702 -0.108476356 -0.030993244 -0.038741555 -0.0025827703 -0.0697348
0.010331081 -0.020662162 0.028410474 0.015496622 0.018079393 -0.07490034 0.015496622 -0.025827702

sequential/lstm_2/while/lstm_cell_2/BiasAdd/ReadVariableOp f4 [256]
00000000: 5c5c 3d3b 46fe 1eba fd7d 64bb 7135 85bc
00000010: 2609 06bc 7ec1 c4bb 4c81 0cbd 7282 29bb
00000020: 2fe1 9fbb 5611 8e3a 5cb4 7bbc 0aa2 8cbc
00000030: 895a 573b b6e7 f1bc ff76 0fbc 6d0b da3b
00000040: 5146 323b e99f 08bc 054a 84bc e6a2 23bc
00000050: 837f 903c 74e7 c3bb 5a03 a63c 955b 72ba
00000060: 417f 3cbc 2e18 aabc 69ab 22bc 3d8d 543b
00000070: 9f25 013c cb4b 4c3a d0aa c43b 7f2f d9bb
00000080: 97a1 943a 5037 d9bb 9bc1 b43b 1d73 19bc
00000090: 8d67 2a3c 6271 23bc b197 76bc 25b1 d5bb
000000a0: f28f 4ebb 36bb 7eba f729 afbb 827e c1ba
000000b0: f46d 8f3b 425e 6dbb 4d9b 9f3a b15d 1ebc
000000c0: 8a07 273b 923b 8f3b ea12 04bc 7e54 93bb
000000d0: 3ccd 60bc 7f49 8bbb 9fcc 8abc ae10 40bc
000000e0: 9d11 d63a 9a9e 23bb 1b9e 1bbb 5dc7 c23c
000000f0: 7681 55bc 0b43 d5bb 43e2 2cbc 2299 0e3d
00000100: 0950 803f e4a7 803f 6b6f 7d3f e4d3 7c3f
00000110: ae00 7e3f f92f 7d3f e85c 7d3f d898 803f
00000120: ed11 803f a618 803f bd88 7c3f f92e 7d3f
00000130: 41fa 813f 6666 7b3f 03bc 7c3f d6ae 7e3f
00000140: 4deb 803f f938 7e3f e547 7c3f 788c 7d3f
00000150: b26f 803f 2f76 7e3f 589b 7c3f 2e67 803f
00000160: b424 7f3f 553d 7c3f 0e62 7d3f a65f 803f
00000170: 0c4d 813f dcd9 7d3f af83 803f df27 803f
00000180: c879 813f d31d 7e3f 8c97 803f c147 7c3f
00000190: c466 843f 1c04 803f c143 7d3f 079c 7f3f
000001a0: fa69 7f3f 75ad 7d3f c4c9 7e3f 7e49 7c3f
000001b0: 8674 803f d9b1 7e3f 69b7 7f3f 421d 7e3f
000001c0: db18 7d3f 85be 7b3f 01cd 7d3f 1e35 7e3f
000001d0: a3ec 7c3f 89a4 7d3f ae07 7c3f 6bea 7c3f
000001e0: e5a6 803f 6503 7f3f 88a0 7e3f 3176 813f
000001f0: 45f1 7c3f 391d 7f3f 80f7 7c3f 3ef4 853f
00000200: e104 b9bb 91db edba 6723 02bc 6211 d7bc
00000210: a747 c6bb 9b3c 55bb 9bc4 93bc 6029 c33b
00000220: e44a 24bc 3168 f8bb 0c9e 8fbb 95d5 7bbc
00000230: c3e3 713c 26ae 13bc 808c 36bc 0e69 a1bb
00000240: ac1d aa3b 6c59 06bc 2766 2cbb 1482 7fbc
00000250: 93c2 653b b0c9 57bc 8be1 723a 9f0c 57bc
00000260: 817c 5abc e4e7 84bc 3cf2 0dbc ff83 483a
00000270: 588d a23c 26b0 18bc 1c2a 9e3b aaaa 60bc
00000280: 6a35 0c3b 30b1 18bc 0b0b ed3b 0d2b 86bb
00000290: b5da bc3c 733b 7dbb 541d 48bc ba9c febb
000002a0: 50be 8d3a 2ccb 9b3b abea 8abc 8c4c babb
000002b0: 4b73 0ebb 1aa0 b4bc 0451 a039 5e1d 89bc
000002c0: b4a1 aebb dcc4 beba 19fa 1ebc 8e0d c1ba
000002d0: b299 85bc b51a 03bc 1a70 6ebc ff1b 29bc
000002e0: 610b 143b d3d8 9bbb 44a1 08bc dd83 e03b
000002f0: 3d94 51bc 27af 4fbc f9b2 27bc f803 0a3d
00000300: 80cd 1f3b 655e 06bc e8f8 5bbb 3609 63bc
00000310: 5bbc 3fbc a094 1ebc 06cf 52bc 84fb 943b
00000320: d97b 47bc 9ba6 edbb 88c7 51bc 5800 3abc
00000330: c695 313c a85a b63c c0eb 68bc 5399 da3b
00000340: f77c c43b dee8 9abb 85db 60bc 2eab 6ebb
00000350: 4653 ec3c bcd9 13bc 600b eb3b 5f0e 86bb
00000360: fe69 2dbc 8a75 12bc fa34 2abc e909 87ba
00000370: 3042 f43b aeb9 4bbc 0399 b83b 0d5c c5bb
00000380: a6b0 81bb 9371 7cbb ce8a 1f3c 8302 4dbc
00000390: bca8 b33c 7217 ffb9 2f50 08bc e164 8ebc
000003a0: 718c 0f3a 70a4 1c3b e458 a2bb cf77 d23a
000003b0: 1377 90bb afdc bfbb ef45 ecba d3b1 1ebc
000003c0: 4621 e33c d67e f2bb ad37 17bc 41be 7b37
000003d0: 95e6 49bc 74d1 c9bb 7a04 93bc 38a5 3dbc
000003e0: 903a 3f3b 15a9 713b 245a 60bb 7d80 f03b
000003f0: 1774 48bc 1263 72bc ad3a 19bc 7071 913c
0.0028894162 -0.00060651114 -0.0034865134 -0.016260834 -0.008180892 -0.0060045114 -0.034302995 -0.0025865105
-0.004879139 0.0010838907 -0.015362825 -0.01716711 0.003286036 -0.029529434 -0.008756398 0.006654194
0.0027202556 -0.008338907 -0.016148577 -0.0099875685 0.017638927 -0.005978519 0.02026527 -0.0009245214
-0.011504949 -0.020763483 -0.009928563 0.0032432817 0.007882505 0.00077932765 0.0060018077 -0.0066279764
0.0011339661 -0.006628908 0.0055162436 -0.009365824 0.010400665 -0.009975763 -0.0150508145 -0.0065213614
-0.0031518904 -0.00097172277 -0.005345579 -0.0014762434 0.004377121 -0.0036219512 0.001217702 -0.009665892
0.0025486671 0.004371115 -0.00806115 -0.0044961562 -0.013720807 -0.004250705 -0.016943274 -0.011722727
0.0016332153 -0.002496636 -0.0023745361 0.023776704 -0.013031354 -0.0065082363 -0.010551992 0.034814008
1.0024425 1.0051236 0.98998135 0.9876082 0.9921979 0.98901325 0.9896989 1.0046644
1.000547 1.0007522 0.98646146 0.988998 1.0154496 0.9820312 0.98724383 0.9948553
1.0071808 0.99305683 0.985472 0.99042463 1.0034087 0.99399084 0.98674536 1.0031488
0.9966538 0.98531085 0.98977745 1.002919 1.0101638 0.9916055 1.0040187 1.0012168
1.011529 0.9926426 1.0046248 0.9854699 1.0343862 1.0001254 0.9893151 0.99847454
0.9977108 0.990928 0.9952662 0.9854964 1.003556 0.99490124 0.99889237 0.99263394
0.9886605 0.98337585 0.99140936 0.992998 0.9879858 0.99079186 0.9844922 0.98795193
1.0050932 0.99614555 0.994637 1.0114194 0.9880565 0.99653965 0.98815155 1.0465162
-0.0056463336 -0.0018147101 -0.007943011 -0.026253406 -0.006051022 -0.0032537344 -0.018038085 0.00595586
-0.010027621 -0.00758078 -0.0043828543 -0.015370746 0.014763775 -0.009013688 -0.011141896 -0.0049258536
0.0051915254 -0.008200031 -0.0026306005 -0.015594978 0.0035058602 -0.013170645 0.0009265176 -0.013125568
-0.013335348 -0.016223855 -0.00866371 0.00076490635 0.019842789 -0.009319341 0.004826797 -0.0137125645
0.0021394142 -0.009319589 0.0072339824 -0.0040944875 0.023053506 -0.003864017 -0.012214024 -0.007770148
0.0010814164 0.0047544446 -0.016957602 -0.0056853946 -0.00217362 -0.022048999 0.0003057794 -0.016737636
-0.005329335 -0.0014554518 -0.009703183 -0.0014728771 -0.01630864 -0.008001973 -0.014553094 -0.010321616
0.002258979 -0.004756072 -0.00833923 0.006851657 -0.01279169 -0.012676037 -0.0102355415 0.03369519
0.0024383962 -0.008201216 -0.0033565108 -0.0138571765 -0.011702622 -0.00967899 -0.012866741 0.0045465846
-0.012175524 -0.007252527 -0.01280392 -0.011352621 0.010838931 0.022260025 -0.014216363 0.0066711097
0.0059963423 -0.004727467 -0.013724213 -0.003641795 0.028848302 -0.00902408 0.007172987 -0.0040910686
-0.010584353 -0.008939156 -0.010388607 -0.0010302636 0.007454179 -0.012434406 0.005633475 -0.006022936
-0.0039578257 -0.0038519844 0.009737683 -0.012512806 0.021931045 -0.00048654858 -0.0083198985 -0.017382087
0.00054759445 0.0023901723 -0.0049544442 0.0016057434 -0.004408726 -0.005855165 -0.0018026213 -0.009685951
0.027725827 -0.007400374 -0.009229583 1.5005063e-05 -0.012323041 -0.006159002 -0.01794647 -0.011575036
0.0029179193 0.0036874462 -0.0034233415 0.0073395357 -0.012234709 -0.014794128 -0.009352368 0.017754287
